…
dding=\"same\"))\n    model.add(BatchNormalization(momentum=0.8))\n    model.add(Activation(\"relu\"))\n    model.add(Conv2D(self.channels, kernel_size=3, padding=\"same\"))\n    model.add(Activation(\"tanh\"))\n    model.summary()\n    noise = Input(shape=(self.latent_dim,))\n    img = model(noise)\n    return Model(noise, img) \n```", "```\nModel: \"sequential_1\"\n_________________________________________________________________\n Layer (type)                Output Shape              Param #   \n=================================================================\n conv2d_3 (Conv2D)           (None, 14, 14, 32)        320       \n\n leaky_re_lu (LeakyReLU)     (None, 14, 14, 32)        0         \n\n dropout (Dropout)           (None, 14, 14, 32)        0         \n\n conv2d_4 (Conv2D)           (None, 7, 7, 64)          18496     \n\n zero_padding2d (ZeroPadding  (None, 8, 8, 64)         0         \n 2D)                                                             \n\n batch_normalization_2 (Batc  (None, 8, 8, 64)         256       \n hNormalization)                                                 \n\n leaky_re_lu_1 (LeakyReLU)   (None, 8, 8, 64)          0         \n\n dropout_1 (Dropout)         (None, 8, 8, 64)          0         \n\n conv2d_5 (Conv2D)           (None, 4, 4, 128)         73856     \n\n batch_normalization_3 (Batc  (None, 4, 4, 128)        512       \n hNormalization)                                                 \n\n leaky_re_lu_2 (LeakyReLU)   (None, 4, 4, 128)         0         \n\n dropout_2 (Dropout)         (None, 4, 4, 128)         0         \n\n conv2d_6 (Conv2D)           (None, 4, 4, 256)         295168    \n\n batch_normalization_4 (Batc  (None, 4, 4, 256)        1024      \n hNormalization)                                                 \n\n leaky_re_lu_3 (LeakyReLU)   (None, 4, 4, 256)         0         \n\n dropout_3 (Dropout)         (None, 4, 4, 256)         0         \n\n flatten (Flatten)           (None, 4096)              0         \n\n dense_1 (Dense)             (None, 1)                 4097      \n\n=================================================================\nTotal params: 393,729\nTrainable params: 392,833\nNon-trainable params: 896 \n```", "```\ndef build_discriminator(self):\n    model = Sequential()\n    model.add(Conv2D(32, kernel_size=3, strides=2,\n    input_shape=self.img_shape, padding=\"same\"))\n    model.add(LeakyReLU(alpha=0.2))\n    model.add(Dropout(0.25))\n    
…
s=1, padding=\"same\"))\n    model.add(BatchNormalization(momentum=0.8))\n    model.add(LeakyReLU(alpha=0.2))\n    model.add(Dropout(0.25))\n    model.add(Flatten())\n    model.add(Dense(1, activation='sigmoid'))\n    model.summary()\n    img = Input(shape=self.img_shape)\n    validity = model(img)\n    return Model(img, validity) \n```", "```\nModel: \"sequential\"\n_________________________________________________________________\n Layer (type)                Output Shape              Param #   \n=================================================================\n dense (Dense)               (None, 6272)              633472    \n\n reshape (Reshape)           (None, 7, 7, 128)         0         \n\n up_sampling2d (UpSampling2D  (None, 14, 14, 128)      0         \n )                                                               \n\n conv2d (Conv2D)             (None, 14, 14, 128)       147584    \n\n batch_normalization (BatchN  (None, 14, 14, 128)      512       \n ormalization)                                                   \n\n activation (Activation)     (None, 14, 14, 128)       0         \n\n up_sampling2d_1 (UpSampling  (None, 28, 28, 128)      0         \n 2D)                                                             \n\n conv2d_1 (Conv2D)           (None, 28, 28, 64)        73792     \n\n batch_normalization_1 (Batc  (None, 28, 28, 64)       256       \n hNormalization)                                                 \n\n activation_1 (Activation)   (None, 28, 28, 64)        0         \n\n conv2d_2 (Conv2D)           (None, 28, 28, 1)         577       \n\n activation_2 (Activation)   (None, 28, 28, 1)         0         \n\n=================================================================\nTotal params: 856,193\nTrainable params: 855,809\nNon-trainable params: 384\n_________________________________________________________________ \n```", "```\nclass DCGAN():\n    def __init__(self, rows, cols, channels, z = 10):\n        # Input shape\n        self.img_rows = rows\n        self.img_cols = cols\n        s
…
