…
n# fit \nhistory = model.fit(X_train, y_train, \n        batch_size=BATCH_SIZE, epochs=EPOCHS, \n        verbose=VERBOSE, validation_split=VALIDATION_SPLIT,\n        callbacks=callbacks)\nscore = model.evaluate(X_test, y_test, verbose=VERBOSE)\nprint(\"\\nTest score:\", score[0])\nprint('Test accuracy:', score[1]) \n```", "```\nModel: \"sequential_1\"\n_____________________________________________________________________\nLayer (type)                    Output Shape              Param #    \n=====================================================================\nconv2d_2 (Conv2D)               (None, 24, 24, 20)        520        \n\nmax_pooling2d_2 (MaxPooling  2D) (None, 12, 12, 20)       0          \n\nconv2d_3 (Conv2D)               (None, 8, 8, 50)          25050      \n\nmax_pooling2d_3 (MaxPooling  2D) (None, 4, 4, 50)         0          \n\nflatten   (Flatten)             (None, 800)               0          \n\ndense   (Dense)                 (None, 500)               400500     \n\ndense_1 (Dense)                 (None, 10)                5010    \n\n=====================================================================\nTotal params: 431,080\nTrainable params: 431,080\nNon-trainable params: 0\n_________________________________________________________________\nTrain on 48000 samples, validate on 12000 samples\nEpoch 1/20\n[2019-04-04 14:18:28.546158: I tensorflow/core/profiler/lib/profiler_session.cc:164] Profile Session started.\n48000
…
