…
e of either feature vector from each of the n_words features\n    model.add(layers.GlobalMaxPooling1D())\n    model.add(layers.Dense(128, activation='relu'))\n    model.add(layers.Dropout(0.5))\n    model.add(layers.Dense(1, activation='sigmoid'))\n    return model\n(X_train, y_train), (X_test, y_test) = load_data()\nmodel=build_model()\nmodel.summary() \n```", "```\n_________________________________________________________________\n Layer (type)                Output Shape              Param #   \n=================================================================\n embedding (Embedding)       (None, 200, 256)          2560000   \n\n dropout (Dropout)           (None, 200, 256)          0         \n\n conv1d (Conv1D)             (None, 198, 256)          196864    \n\n global_max_pooling1d (Globa  (None, 256)              0         \n lMaxPooling1D)                                                  \n\n dense (Dense)               (None, 128)               32896     \n\n dropout_1 (Dropout)         (None, 128)               0         \n\n dense_1 (Dense)             (None, 1)                 129       \n\n=================================================================\nTotal params: 2,789,889\nTrainable params: 2,789,889\nNon-trainable params: 0 \n```", "```\nmodel.compile(optimizer = \"adam\", loss = \"binary_crossentropy\",\n  metrics = [\"accuracy\"]\n)\nscore = model.fit(X_train, y_train,\n  epochs= EPOCHS,\n  batch_size = BATCH_SIZE,\n  validation_data = (X_test, y_test)\n)\nscore
…
