…
- 2s 42us/sample - loss: 0.2845 - accuracy: 0.9170 - val_loss: 0.1917 - val_accuracy: 0.9442\n10000/10000 [==============================] - 1s 61us/sample - loss: 0.1927 - accuracy: 0.9415\nTest accuracy: 0.9415 \n```", "```\n# Compiling the model.\nmodel.compile(optimizer='RMSProp', \n              loss='categorical_crossentropy', metrics=['accuracy']) \n```", "```\n_________________________________________________________________\nLayer (type)                Output Shape              Param #    \n=================================================================\ndense_layer (Dense)         (None, 128)               100480     \n\ndropout_2 (Dropout)         (None, 128)               0          \n\ndense_layer_2 (Dense)       (None, 128)               16512      \n\ndropout_3 (Dropout)         (None, 128)               0          \n\ndense_layer_3 (Dense)       (None, 10)                1290       \n\n=================================================================\nTotal params: 118,282\nTrainable params: 118,282\nNon-trainable params: 0\n_________________________________________________________________\nTrain on 48000 samples, validate on 12000 samples\nEpoch 1/10\n48000/48000 [==============================] - 2s 48us/sample - loss: 0.4715 - accuracy: 0.8575 - val_loss: 0.1820 - 
…
ompile(optimizer = \"adam\", loss = \"binary_crossentropy\",\n metrics = [\"accuracy\"]\n)\nscore = model.fit(X_train, y_train,\n epochs = EPOCHS,\n batch_size = BATCH_SIZE,\n validation_data = (X_test, y_test)\n)\nscore = model.evaluate(X_test, y_test, batch_size=BATCH_SIZE)\nprint(\"\\nTest score:\", score[0])\nprint('Test accuracy:', score[1]) \n```", "```\n___________________________________________________________________\nLayer (type)                  Output Shape              Param #    \n===================================================================\nembedding (Embedding)         (None, 200, 256)          2560000    \n\ndropout (Dropout)             (None, 200, 256)          0          \n\nglobal_max_pooling1d (Global  (None, 256)               0          \n\ndense (Dense)                 (None, 128)               32896      \n\ndropout_1 (Dropout)           (None, 128)               0          \n\ndense_1 (Dense)               (None, 1)                 129        \n\n===================================================================\nTotal params: 2,593,025\nTrainable params: 2,593,025\nNon-trainable params: 0 \n```", "```\nEpoch 20/20\n25000/25000 [==============================] - 23s 925ms/sample - loss: 0.0053 - accuracy: 0.9991 - val_loss: 0.4993 - val_accuracy: 0.8503\n25000/25000 [==============================] - 2s 74us/sample - loss: 0.4
…
