…
# Scale input in [-1, 1] range\ntrain_x = train_x / 255\\. * 2 - 1\ntest_x = test_x / 255\\. * 2 - 1\ntrain_x = tf.expand_dims(train_x, -1).numpy()\ntest_x = tf.expand_dims(test_x, -1).numpy()\n\nmodel.compile(\n optimizer=tf.keras.optimizers.Adam(1e-5),\n loss='sparse_categorical_crossentropy',\n metrics=['accuracy'])\n\nmodel.fit(train_x, train_y, epochs=10)\nmodel.evaluate(test_x, test_y)\n```", "```\nModel: \"sequential\"\n__________________________________________________\nLayer   (type)     Output Shape         Param #\n==================================================\nconv2d (Conv2D) (None, 24, 24, 32) 832 \n__________________________________________________\nmax_pooling2d (MaxPooling2D) (None, 12, 12, 32) 0 \n__________________________________________________\nconv2d_1 (Conv2D) (None, 10, 10, 64) 18496 \n__________________________________________________\nmax_pooling2d_1 (MaxPooling2D) (None, 5, 5, 64) 0 \n__________________________________________________\nflatten (Flatten) (None, 1600) 0 \n__________________________________________________\ndense (Dense) (None, 1024) 1639424 \n__________________________________________________\ndropout (Dropout) (None, 1024) 0 \n__________________________________________________\ndense_1 (Dense) (None, 10) 10250 \n==================================================\nTotal params: 1,669,002\nTrainable params: 1,669,002\nNon-trainable params: 0\n```", "```\nEpoch 1/10\n60000/60000 [================] - 126s 2ms/sample - loss: 1.9142 - accuracy: 0.4545\nEpoch 2/10\n60000/60000 [================] - 125s 2ms/sample - loss: 1.3089 - accuracy: 0.6333\nEpoch 3/10\n60000/60000 [================] - 129s 2ms/sample -
…
