…
x = GlobalMaxPool1D()(x) x = Dropout(0.5)(x) \nx = Dense(50, activation='relu', kernel_regularizer='L1L2')(x) \nx = Dropout(0.5)(x) \nx = Dense(3, activation='softmax')(x) \nmodel_DistilBert = Model(inputs=[inp], outputs=x)\nmodel_DistilBert.compile(loss='categorical_crossentropy',optimizer='adam',metrics=['accuracy'])\nmodel_DistilBert.summary()\nModel: \"model_1\"\n_________________________________________________________________\nLayer (type)                 Output Shape              Param #   \n=================================================================\ninput_2 (InputLayer)         (None, 128)               0         \n_________________________________________________________________\nembedding_1 (Embedding)      (None, 128, 768)          23440896  \n_________________________________________________________________\nbidirectional_1 (Bidirection (None, 128, 100)          327600    \n_________________________________________________________________\nbidirectional_2 (Bidirection (None, 128, 50)           25200     \n_________________________________________________________________\nglobal_max_pooling1d_1 (Glob (None, 50)                0         \n_________________________________________________________________\ndropout_1 (Dropout)          (None, 50)                0         \n_________________________________________________________________\ndense_1 (Dense)              (None, 50)                2550      \n_________________________________________________________________\ndropout_2 (Dropout)          (None, 50)                0         \n_________________________________________________________________\ndense_2 (Dense)              (None, 3)                 153       \n=================================================================\nTotal params: 23,796,399\nTrainable params: 355,503\nNon-trainable params: 23,440,896\n_________________________________________________________________ \n```", "```\nmodel_DistilBert.fit(X,y,batch_size=32,epochs=10,validation_split=0.1)\nTrain on 24732 samples, validate on 2748 samples\nEpoch 1/10\n24732/24732 [==========
…
