…
el with loss/optimzier/metrics\ncnn_model.compile(\n    loss='sparse_categorical_crossentropy', \n    optimizer='adam', \n    metrics=['accuracy']\n) \n```", "```\ncnn_model.summary() \n```", "```\nModel: \"model\"\n______________________________________________________________________\nLayer (type)            Output Shape         Param #     Connected to \n======================================================================\ninput_1 (InputLayer)    [(None, 22)]         0                        \n______________________________________________________________________\nembedding (Embedding)   (None, 22, 64)       504320      input_1[0][0]\n______________________________________________________________________\nconv1d (Conv1D)         (None, 22, 100)      19300     embedding[0][0]\n______________________________________________________________________\nconv1d_1 (Conv1D)       (None, 22, 100)      25700     embedding[0][0]\n______________________________________________________________________\nconv1d_2 (Conv1D)       (None, 22, 100)      32100     embedding[0][0]\n______________________________________________________________________\nconcatenate (Concatenate) (None, 22, 300)    0            conv1d[0][0]\n                                                        conv1d_1[0][0]\n                                                        conv1d_2[0][0]\n______________________________________________________________________\nmax_pooling1d (MaxPooling1D) (None, 1, 300)    0     concatenate[0][0]\n______________________________________________________________________\nflatten (Flatten)          (None, 300)         0   max_pooling1d[0][0]\n______________________________________________________________________\ndense (Dense)              (None, 6)           1806    flatten[0][0] \n======================================================================\nTotal params: 583,226\nTrainable params: 583,226\nNon-trainable params: 0\n______________________________________________________________________ \n```", "```\n# Call backs\nlr_reduce_callback = tf.keras.callbacks.ReduceLROnPlateau(\n    monitor='val_loss', factor=0.1, patience=3, verbose=1,\n    mode='auto
…
