…
urn_state=False, return_sequences=True),\n    layers.Dense(1024, activation='relu'),\n    layers.Dropout(0.5),\n    layers.Dense(n_vocab, activation='softmax')\n]) \n```", "```\nlm_model.summary() \n```", "```\nModel: \"sequential\"\n_________________________________________________________________\n Layer (type)                Output Shape              Param #   \n=================================================================\n text_vectorization (TextVec  multiple                 0         \n torization)                                                     \n\n embedding (Embedding)       (None, 128, 96)           67872     \n\n lstm (LSTM)                 (None, 128, 512)          1247232   \n\n lstm_1 (LSTM)               (None, 128, 256)          787456    \n\n dense (Dense)               (None, 128, 1024)         263168    \n\n dropout (Dropout)           (None, 128, 1024)         0         \n\n dense_1 (Dense)             (None, 128, 705)          722625    \n\n=================================================================\nTotal params: 3,088,353\nTrainable params: 3,088,353\nNon-trainable params: 0\n_________________________________________________________________ \n```", "```\nclass PerplexityMetric(tf.keras.metrics.Mean):\n    def __init__(self, name='perplexity', **kwargs):\n        super().__init__(name=name, **kwargs)\n        self.cros
…
