…
    activation='relu',\n                 input_shape=n_shape))\nmodel.add(MaxPooling2D(pool_size=(2, 2), strides=(2, 2)))\nmodel.add(Flatten())\nmodel.add(Dense(512, activation='relu',name='hidden1'))\nmodel.add(Dense(9, activation='softmax', name='output'))\nmodel.compile(loss='categorical_crossentropy',optimizer='adam')\nmodel.summary()\nq_nn = model\n\n```", "```\n_________________________________________________________________\nLayer (type)                 Output Shape              Param #   \n=================================================================\nconv2d_4 (Conv2D)            (None, 206, 156, 16)      1216      \n_________________________________________________________________\nmax_pooling2d_4 (MaxPooling2 (None, 103, 78, 16)       0         \n_________________________________________________________________\nflatten_8 (Flatten)          (None, 128544)            0         \n_________________________________________________________________\nhidden1 (Dense)              (None, 512)               65815040  \n_________________________________________________________________\noutput (Dense)               (None, 9)                 4617      \n=================================================================\nTotal params: 65,820,873\nTrainable params: 65,820,873\nNon-trainable params: 0\n```"]